fb_model_simple.pth (torch, 269559 bytes, 20 tensors)

net.0.weight f4 [128, 22]
0	0xbe0ace59	-0.13555278
1	0xbe36310f	-0.17792152
2	0x3e3306ed	0.1748311
3	0xbdfa0a4d	-0.12208996
4	0xbd6151be	-0.055009596
5	0x3dd64b1d	0.104635455
6	0x3b9dbe3f	0.004813939
7	0x3d6516fd	0.055930126
8	0xbdb10e7d	-0.086453415
9	0x3db8628c	0.09003171
10	0xbe5492ac	-0.20759076
11	0xbd583f62	-0.05279482
12	0x3e4a0c15	0.19731171
13	0x3e1d3547	0.15352355
14	0x3e44aac6	0.1920577
15	0xbe26df90	-0.1629622
16	0x3e08ce04	0.13359839
17	0x3de8702b	0.11349519
18	0x3e40ae37	0.18816458
19	0x3e076086	0.13220415
20	0x3e42e655	0.19033177
21	0x3e40bb87	0.18821536
22	0x3c0641f5	0.008194436
23	0x3e0e423d	0.13892455
24	0x39e84b6e	0.00044306688
25	0xbdc79a7f	-0.09746265
26	0x3e009e7b	0.12560456
27	0x3e37ebbb	0.17961018
28	0x3e3a255a	0.18178311
29	0xbe4fd025	-0.20294245
30	0x3cafe91e	0.021473464
31	0xbdcef697	-0.10105627
32	0x3ce20c9d	0.027593905
33	0xbe002cc2	-0.12517074
34	0xbe1a6bf4	-0.15080243
35	0x3e006601	0.12538911
36	0xbda9e2b6	-0.08295195
37	0x3dc80db5	0.097682394
38	0x3dc4c04b	0.096069895
39	0xbe3941bf	-0.18091486
40	0x3e3225dd	0.17397256
41	0xbe547482	-0.20747569
42	0xbe2c397d	-0.16818805
43	0x3e287298	0.16449964
44	0xbdeeabb2	-0.11653842
45	0xbe045254	-0.1292203
46	0x3e2217b9	0.15829362
47	0x3debed42	0.11519863
48	0xbe13e66c	-0.14443368
49	0xbd9d99dd	-0.07695363
50	0x3d1391b4	0.036027625
51	0x3e1aeaae	0.15128586
52	0x3e341e5b	0.17589705
53	0x3d8b20c5	0.0679336
54	0x3e11879c	0.14211887
55	0xbe29f62f	-0.16597818
56	0x3e521e99	0.20519485
57	0xbcb80595	-0.0224636
58	0xbe3cd833	-0.18441848
59	0xbcb6970c	-0.022288822
60	0x3dce5d50	0.10076392
61	0xbcf6b01b	-0.03011327
62	0x3cb4b08c	0.02205684
63	0xbcc77bc0	-0.024351
64	0x3d026d8e	0.03184276
65	0xbc81a394	-0.01582507
66	0xbde6c54a	-0.11268099
67	0x3e1945f8	0.14968097
68	0x3d265ad2	0.040613957
69	0x3e0ccdc3	0.13750367
70	0x3e4cb987	0.19992648
71	0x3dccd1f5	0.100009836
72	0xbe32ee7d	-0.17473789
73	0xbde587db	-0.11207553
74	0xbdef2380	-0.11676693
75	0x3e1cf18a	0.15326515
76	0x3e001c77	0.12510858
77	0xbe1cb75a	-0.15304318
78	0x3c591bce	0.013251258
79	0x3e36fc8d	0.17869778
80	0xbe3a9e75	-0.18224509
81	0xbe4e0f8f	-0.20123123
82	0x3d9f0d7c	0.07766244
83	0x3e11cc5b	0.14238112
84	0xbe2ebf7e	-0.17065236
85	0x3dd9a3cc	0.10626945
86	0x3d65222a	0.055940785
87	0x3e41687b	0.18887512
88	0xbe17db90	-0.1482985
89	0xbdf6ea60	-0.12056422
90	0xbdc087cd	-0.09400902
91	0x3e4cf9a1	0.20017101
92	0x3b828324	0.0039829183
93	0x3da50730	0.080580115
94	0x3e55d135	0.20880587
95	0xbe16deda	-0.14733449
96	0x3b6f0576	0.003647176
97	0xbc48c8ee	-0.012254937
98	0xbd2f645a	-0.042820312
99	0x3e1a718c	0.15082377
100	0xbcaf70fa	-0.021416176
101	0x3e015ca2	0.12632993
102	0x3dc0d36e	0.09415327
103	0x3e0509e1	0.1299205
104	0xbe0693f0	-0.13142371
105	0xbdc74149	-0.09729249
106	0x3dbfe862	0.093704954
107	0xbd40c3a0	-0.047061563
108	0xbdd34ac0	-0.10316992
109	0xbe1b9871	-0.1519487
110	0xbde0ea4b	-0.10982188
111	0x3d3da05d	0.046295512
112	0xbe12f185	-0.14349945
113	0x3dfe1f58	0.12408322
114	0x3c2dffec	0.010620099
115	0xbe1e47ed	-0.15457125
116	0xbdfedc49	-0.1244436
117	0xbe590862	-0.21194604
118	0xbe3c33bc	-0.1837911
119	0x3e4d5a13	0.20053892
120	0x3d6b5dc7	0.05746248
121	0xbe1ca50e	-0.15297338
122	0x3e00660c	0.12538928
123	0xbd8c23b0	-0.06842744
124	0x3dd33dcf	0.103145234
125	0x3e0d59db	0.13803808
126	0xbc9faa21	-0.019490303
127	0x3dbd4a62	0.09242703
128	0x3d7d0f3c	0.061782107
129	0x3d4e2378	0.050326794
130	0xbdc6861b	-0.09693547
131	0xbe201893	-0.15634374
132	0x3e235832	0.15951613
133	0x3e406c65	0.18791349
134	0xbe642448	-0.22279465
135	0x3da096db	0.078412734
136	0xbe397743	-0.18111901
137	0x3e579ecd	0.21056671
138	0xbe34f339	-0.17670907
139	0xbd9da08e	-0.07696639
140	0xbe16c383	-0.1472302
141	0x3e291a8d	0.16514035
142	0x3cef3266	0.029198837
143	0xbe32ee2f	-0.17473672
144	0x3b9effb4	0.0048522595
145	0x3de70909	0.1128102
146	0xbd962855	-0.073319115
147	0x3deb1399	0.11478347
148	0x3db3d261	0.08780361
149	0x3d134212	0.03595168
150	0xbd94eec0	-0.072721004
151	0x3e076bbc	0.13224691
152	0x3e2b1c51	0.1671002
153	0xbd4e9ffc	-0.05044554
154	0xbe2e6f5a	-0.17034665
155	0xbe1d7f2f	-0.15380548
156	0xbd1b2773	-0.03787942
157	0xbe2860e9	-0.16443218
158	0xbcddbbd7	-0.027067108
159	0x3da308da	0.07960673
160	0xbd706248	-0.05868748
161	0xbce08ede	-0.027411874
162	0xbe2d38eb	-0.16916244
163	0xbe2ba138	-0.16760719
164	0x3e1838ed	0.14865465
165	0x3e03a179	0.12854566
166	0xbd9065f2	-0.070506945
167	0xbdd6cb2c	-0.10487971
168	0xbe1e6b9b	-0.15470736
169	0xbe42a01a	-0.19006386
170	0xbe44aa9a	-0.19205704
171	0xbe144a1e	-0.14481398
172	0x3d9524f5	0.072824396
173	0x3d1302cd	0.035891343
174	0xbe258293	-0.16163091
175	0xbde6cd9e	-0.11269687
176	0xbd112507	-0.035435703
177	0x3e16a9a0	0.14713144
178	0xbdaacf39	-0.08340306
179	0x3de5ddcd	0.11223946
180	0xbe47b969	-0.19504322
181	0x3d05e68e	0.032690577
182	0xbe0b4a11	-0.13602473
183	0x3d528813	0.0513993
184	0x3e0dd3c3	0.13850312
185	0x3d6b00f3	0.057373952
186	0x3e3dd655	0.18538792
187	0xbda323cc	-0.07965812
188	0xbe321d13	-0.17393903
189	0x3c5039e8	0.012709118
190	0xbda38aed	-0.07985482
191	0xbde01e8d	-0.10943327
192	0x3d721006	0.059097312
193	0xbdd2513e	-0.10269402
194	0xbd684de3	-0.056714904
195	0x3b948fae	0.0045337295
196	0xbe0d5761	-0.13802864
197	0xbda3fea2	-0.08007552
198	0xbd18a5a2	-0.037267335
199	0x3e3af89b	0.18258898
200	0xbdf2a4da	-0.11847849
201	0xbe4b28ce	-0.19839785
202	0xbe150838	-0.14553916
203	0x3e5d567d	0.21615024
204	0xbd0f7a09	-0.03502849
205	0xbdae9068	-0.08523637
206	0x3df93af9	0.12169451
207	0x3dd291cc	0.10281715
208	0x3e53d093	0.20685034
209	0x3e3f2ffb	0.18670647
210	0x3dca2cd7	0.09871834
211	0x3e1b7d15	0.15184434
212	0xbe609402	-0.2193146
213	0xbe333efb	-0.17504494
214	0xbe0f3491	-0.13984896
215	0x3e150c9c	0.14555591
216	0xbddb8394	-0.10718456
217	0x3e0c2756	0.1368688
218	0xbdd9b5d4	-0.10630384
219	0x3e47b65a	0.19503155
220	0xbe158aab	-0.14603679
221	0xbe0f78ae	-0.1401088
222	0xbe15a6cf	-0.14614414
223	0x3d958d67	0.07302361
224	0x3d7d8bb6	0.061900817
225	0xbe521780	-0.20516777
226	0xbd764fcf	-0.060134705
227	0xbd384a8b	-0.044992965
228	0xbdc6ebc5	-0.09712938
229	0x3d971e9e	0.07378887
230	0xbdd0edbb	-0.102015935
231	0xbe19d13a	-0.1502122
232	0x3e078da5	0.13237627
233	0x3e224587	0.15846835
234	0xbe32e23f	-0.17469119
235	0x3e089009	0.13336195
236	0xbd4f861c	-0.050665006
237	0xbe56d56f	-0.20979856
238	0xbde75a3f	-0.1129651
239	0xbdcb7a0e	-0.099353895
240	0x3e51ec19	0.2050022
241	0xbdb46ec6	-0.08810191
242	0xbd385970	-0.04500717
243	0x3cbebdf3	0.023283934
244	0x3e203bac	0.15647763
245	0xbe49852f	-0.19679712
246	0x3e39d64d	0.18148156
247	0xbcd24cd1	-0.025671395
248	0x3bcbbb93	0.006217429
249	0x3e469df2	0.19396189
250	0xbcc42ed9	-0.02394812
251	0xbe337b1b	-0.1752743
252	0x3e10bc66	0.14134368
253	0x3d976994	0.07393184
254	0xbe29bfcf	-0.16577075
255	0xbe24d62f	-0.1609733

net.0.bias f4 [128]
0	0xbd108236	-0.03528043
1	0x3ddd9853	0.10820069
2	0x3e1387ec	0.14407319
3	0xbe379005	-0.17926033
4	0xbc91d7f6	-0.017803174
5	0x3e7fd59f	0.24983834
6	0x3e67f02d	0.22650214
7	0x3dd9d8a1	0.10637022
8	0x3de91556	0.11381023
9	0x3de9dc7b	0.114190064
10	0x3e2574fa	0.16157904
11	0x3d904be9	0.07045729
12	0x3e44c44e	0.1921551
13	0xbc25e783	-0.0101259975
14	0xbe074d96	-0.1321319
15	0x3e10edd9	0.14153232
16	0x3e5680a6	0.20947513
17	0xbc908ac5	-0.017644295
18	0x3c3b57ae	0.011434479
19	0xbe20a4d1	-0.15687872
20	0x3de4a083	0.11163428
21	0xbe28a07a	-0.16467467
22	0xbe5fad8c	-0.21843547
23	0x3e0a17e4	0.13485676
24	0xbe0062c2	-0.12537673
25	0x3e156053	0.14587526
26	0xbd91279d	-0.07087634
27	0xbded060d	-0.1157342
28	0xbe2711c1	-0.16315366
29	0xbe36591a	-0.17807427
30	0xbe01222e	-0.12610695
31	0xbe2f9554	-0.17146808
32	0x3d46aeaa	0.048506416
33	0xbe27503d	-0.16339202
34	0x3de93de6	0.11388759
35	0x3ddca5df	0.10773825
36	0xbc6d5de7	-0.01448772
37	0xbe153743	-0.14571862
38	0x3d4a358d	0.049367476
39	0x3e452a7b	0.19254486
40	0xbe420f6c	-0.18951195
41	0xbdf79d8d	-0.12090597
42	0xbdf87cb0	-0.12133157
43	0x3dcbade8	0.09945279
44	0xbe10eb98	-0.14152372
45	0x3baa3853	0.0051947027
46	0xbd9f2824	-0.07771328
47	0x3e42beb6	0.19018063
48	0x3d9333e4	0.07187632
49	0x3e0b17cd	0.13583298
50	0xbe53f066	-0.20697173
51	0xbe60c1aa	-0.21948877
52	0xbe4b74de	-0.198688
53	0x3dc27006	0.09494023
54	0x3dc201c7	0.09472995
55	0xbbae70c8	-0.005323503
56	0xbe2b65a4	-0.16737992
57	0xbdd0c1ee	-0.10193239
58	0x3d4a2483	0.049351227
59	0xbd827d3a	-0.06371541
60	0x3dfb4555	0.122690834
61	0x3d853f44	0.065062076
62	0x3d7782d2	0.060427494
63	0xbe13d2a4	-0.14435822
64	0x3ca91bf6	0.020643216
65	0xbe164423	-0.1467443
66	0x3d6d45b1	0.05792779
67	0xbd9b322f	-0.07577931
68	0x3d62a66d	0.055334497
69	0xbe0a5452	-0.13508728
70	0x3d0aa1ee	0.033845834
71	0x3d6c1859	0.057640407
72	0x3e49f959	0.19724025
73	0x3d85d805	0.06535343
74	0xbe2af110	-0.1669352
75	0x3d860a81	0.06544972
76	0x3d87fa08	0.066394866
77	0x3e550325	0.20801981
78	0x3e7ba407	0.2457429
79	0x3e5baaff	0.21451949
80	0x3cf93e50	0.03042522
81	0x3e764dc9	0.2405311
82	0xbdfb9ff8	-0.12286371
83	0x3d4e8dfe	0.050428383
84	0xbd4f1bd2	-0.05056364
85	0x3e128406	0.14308175
86	0x3d823626	0.06357984
87	0x3e00a6a6	0.12563571
88	0x3e156ecd	0.14593048
89	0x3de5ef31	0.11227263
90	0xbd7e9ebd	-0.062163103
91	0xbe19e1b2	-0.15027502
92	0x3e22bd11	0.15892436
93	0x3d40016d	0.04687636
94	0xbe360e50	-0.17778897
95	0xbe07ffd1	-0.1328118
96	0x3e2410e7	0.16022073
97	0x3e592d9b	0.21208803
98	0x3e02aa01	0.12760164
99	0xbdb173ef	-0.08664691
100	0x3d908633	0.070568465
101	0x3b398f6b	0.0028314244
102	0x3dbbd563	0.0917156
103	0x3dee103b	0.116241895
104	0x3d6428c5	0.055702943
105	0xbe0241a7	-0.12720357
106	0xbd073b07	-0.033015277
107	0x3c06f4e4	0.008237097
108	0x3d957db8	0.072993696
109	0xbe091d01	-0.1338997
110	0xbdf479f0	-0.1193732
111	0x3e65e057	0.2244886
112	0xbdbbbf7f	-0.09167384
113	0xbe4b2071	-0.19836594
114	0x3e6153b9	0.22004594
115	0xbe170098	-0.1474632
116	0x3e57edaf	0.21086763
117	0x3e760f84	0.24029356
118	0xbd5c7286	-0.053820156
119	0x3d9ab73b	0.0755448
120	0xbcd1d848	-0.025615826
121	0x3e04b94d	0.12961312
122	0xbdebabe7	-0.11507397
123	0xbdb4d8ce	-0.08830415
124	0xbd4aa947	-0.04947784
125	0x3e0fb5d8	0.14034212
126	0x3e643128	0.22284377
127	0x3e450b4d	0.19242592

net.2.weight f4 [128, 128]
0	0xbcc28e86	-0.023749601
1	0x3da1beb9	0.078977056
2	0x3d7735d2	0.06035406
3	0x3d128391	0.035770003
4	0x3d4a9975	0.049462754
5	0x3d0fde13	0.035123896
6	0x3d8bd02c	0.06826815
7	0x3d0684c1	0.032841448
8	0xbda19581	-0.07889844
9	0xbd9429b9	-0.072345205
10	0x3db4852d	0.08814464
11	0x3d1cdba0	0.03829539
12	0xbbc3fc6d	-0.005981019
13	0xbd8eb9c1	-0.069690235
14	0xbd4ddac7	-0.05025747
15	0x3c08f87f	0.008360027
16	0xbd622555	-0.055211384
17	0xbcedd2d5	-0.029031197
18	0xbce038db	-0.02737086
19	0xbd85e128	-0.06537086
20	0x3d6008e9	0.054695997
21	0x3d083df1	0.033262197
22	0xbd8e8c7b	-0.06960388
23	0xbd8afaa6	-0.06786089
24	0x3d367ddf	0.044553634
25	0x3b1c5bc0	0.0023858398
26	0x3d90ae02	0.07064439
27	0xbb51e267	-0.0032025815
28	0xbdaa2cfd	-0.08309362
29	0xbd1766b9	-0.0369632
30	0xbdaedc0d	-0.08538065
31	0x3d2d674c	0.04233484
32	0x3d075d99	0.033048246
33	0xbd18c02e	-0.03729265
34	0x3c3b8c33	0.011447
35	0x3da55517	0.0807287
36	0x3db3befb	0.08776661
37	0xbd08e55e	-0.033421867
38	0x3cdc92e3	0.02692551
39	0x3d205d0b	0.039151233
40	0xbd89ec02	-0.06734468
41	0x3d7f12e0	0.06227386
42	0xbd7dab69	-0.061931048
43	0xbc44e091	-0.012016431
44	0x3d31ebb8	0.04343769
45	0x3da271c7	0.079318576
46	0x3d9a5060	0.075348616
47	0x3d02dad4	0.031946972
48	0xbc9da1b6	-0.019242149
49	0xbd07e252	-0.03317482
50	0x3b5d16fa	0.003373562
51	0xbb054f4d	-0.0020341456
52	0xbd68b0aa	-0.056809105
53	0x3d8466e2	0.06464936
54	0x3c3cdc5a	0.011527145
55	0x3d384090	0.044983447
56	0x3d772810	0.06034094
57	0x3c5f810f	0.01364161
58	0x3aad8b33	0.0013240337
59	0x3da5ff0d	0.08105288
60	0x3d67915e	0.056535117
61	0x3d908f55	0.070585884
62	0x3d8a6ba6	0.067588136
63	0x3ce556c4	0.027995475
64	0xbcf9af7d	-0.030479187
65	0x3d836ae8	0.06416875
66	0x3da41f36	0.080137655
67	0xbd3bbe92	-0.04583604
68	0x3d275226	0.040849827
69	0xbd89ea52	-0.06734146
70	0xbd6236d2	-0.055228062
71	0xbd822860	-0.06355357
72	0x3d8e48d7	0.06947487
73	0xbd87aab4	-0.06624356
74	0xbc8dbc71	-0.01730177
75	0xbc2dd9a9	-0.010610976
76	0xbca6405c	-0.02029436
77	0xbd57a425	-0.052646775
78	0x3d62e149	0.05539063
79	0x3d854ccc	0.065087885
80	0xbd94ad19	-0.07259578
81	0x3d28e34c	0.041232392
82	0xbc41c3be	-0.011826454
83	0x3ce1b831	0.02755365
84	0x3d32f763	0.043692958
85	0x3d8f9b29	0.07012016
86	0x3d8d1434	0.06888619
87	0xbb114bb7	-0.0022170374
88	0x3c35c1dd	0.011093584
89	0xbd1ec7d9	-0.03876481
90	0x3d95f423	0.07321956
91	0xbd828771	-0.0637349
92	0x3bf1e140	0.007381588
93	0x3d50f066	0.05101051
94	0xbc8cb842	-0.017177705
95	0xbb764688	-0.003757866
96	0xbc80c01f	-0.01571661
97	0x3d2dd51f	0.042439576
98	0xbd93771b	-0.07200452
99	0x3d574bd9	0.05256257
100	0x3d3cc485	0.046085853
101	0xbdc4ea1a	-0.09614964
102	0x3d02fc64	0.03197898
103	0xbd599d8c	-0.053128764
104	0xbda42f2e	-0.08016811
105	0x3cb8c271	0.022553654
106	0x3d50d7e5	0.050987143
107	0xbcdf6e2a	-0.02727421
108	0xbd78d343	-0.06074835
109	0xbc8b2ee5	-0.016990134
110	0xbbb32102	-0.0054665813
111	0x3cf2b8c7	0.029629124
112	0x3d4cb2fa	0.049975373
113	0x3d515e63	0.051115405
114	0x3da281fc	0.07934949
115	0x3d9a7988	0.075427115
116	0x3d5579a0	0.052117944
117	0xbd5c2c2f	-0.053753074
118	0x3c8432d6	0.016137522
119	0xbd3d4bae	-0.046214752
120	0x3d79d95e	0.060998313
121	0xbd16c6f8	-0.036810845
122	0xbc82b5d1	-0.015955837
123	0x3cad140c	0.021127723
124	0xbd78c08d	-0.060730506
125	0x3d485c89	0.048916373
126	0xbd2ae0a1	-0.04171813
127	0x3da462c8	0.080266535
128	0xbd9671fb	-0.07345959
129	0xbd2e4e44	-0.04255511
130	0xbcc3c139	-0.023895847
131	0xbcb16c28	-0.021658018
132	0x3d94f829	0.07273895
133	0xbd107778	-0.035270184
134	0x3cddd1cb	0.027077576
135	0xbd966525	-0.073435105
136	0xbd525778	-0.051352948
137	0x3d38594a	0.045007028
138	0x3d633e66	0.05547943
139	0x3d4b42b9	0.04962418
140	0xbd19c90d	-0.037545253
141	0x3d0667b9	0.03281376
142	0x3ca3e8e9	0.020008521
143	0xbd9c9fba	-0.07647653
144	0xbd3bd338	-0.04585573
145	0xbd86dc61	-0.06585003
146	0xbcdc3393	-0.026880061
147	0x3d8c10e2	0.06839158
148	0xbd935be0	-0.07195258
149	0xbd9d967c	-0.07694718
150	0x3cc16888	0.023609415
151	0x3c977ae4	0.018491216
152	0xbd0536a0	-0.032522798
153	0xbc9200ae	-0.01782259
154	0xbd8817c5	-0.06645159
155	0xbd9f1a4e	-0.07768689
156	0x3d90dca1	0.070733316
157	0xbd892f30	-0.066984534
158	0x3d7213f9	0.05910108
159	0xbcf98d71	-0.030462952
160	0xbc668691	-0.014070169
161	0xbc984a4e	-0.018590119
162	0xbc3e67c6	-0.011621421
163	0xbd8c5026	-0.068512246
164	0xbd5678f0	-0.05236143
165	0x3d8fffc9	0.07031209
166	0xbd9d6ec6	-0.07687144
167	0x3c1fa57f	0.009744047
168	0xbc2f59fc	-0.010702606
169	0x3d363fd0	0.04449445
170	0x3d952594	0.07282558
171	0xbdad24c2	-0.084542766
172	0xbc6a33c9	-0.014294573
173	0xbd66ca4c	-0.05634527
174	0xbd8cef80	-0.068816185
175	0xbd68e14c	-0.056855485
176	0x3bcfde05	0.0063436055
177	0x3da7ed6d	0.08199582
178	0xbd96f6a5	-0.073712625
179	0xbda02545	-0.078196086
180	0x3d8a4a57	0.067524604
181	0x3d85e2a3	0.06537368
182	0x3d729513	0.0592242
183	0x3abee575	0.0014564233
184	0xbbdc6634	-0.0067260507
185	0xbd1fed4e	-0.03904467
186	0x3c8b9a73	0.01704142
187	0x3c3ecaf6	0.011645069
188	0x3ce2b223	0.027672833
189	0xbc81e870	-0.015857905
190	0x3d688e85	0.056776542
191	0xbc15e634	-0.009149123
192	0xbc9ca984	-0.0191238
193	0xbd6faf86	-0.058517
194	0xbdb3d299	-0.08780403
195	0x3d14f9d9	0.036371086
196	0x3d423409	0.047412906
197	0x3d94bf59	0.07263059
198	0xbd77d721	-0.060507897
199	0x3cf55c64	0.029951282
200	0x3d92e0eb	0.07171806
201	0xbd0fe01a	-0.03512583
202	0x3d5974e0	0.053089976
203	0xbccef74c	-0.025264405
204	0x3c8f7dfe	0.017516132
205	0xbd92ce0f	-0.07168209
206	0x3d86501e	0.0655825
207	0x3d65ea02	0.05613137
208	0x3cc2ae2f	0.023764698
209	0xbcfcaf58	-0.03084533
210	0xbd5f9e0f	-0.054594096
211	0x3d8f99de	0.0701177
212	0xbda0544e	-0.0782858
213	0x3cbbbc27	0.022916866
214	0x3d59c700	0.053168297
215	0xbd74d49d	-0.059773076
216	0x3d8432c9	0.06454999
217	0x3d879cb7	0.06621688
218	0x3d926f75	0.07150165
219	0x3d12ba6a	0.03582231
220	0xbd1aa6fb	-0.0377569
221	0x3d50d62c	0.0509855
222	0xbc6d52b6	-0.014485052
223	0xbd9fe405	-0.07807163
224	0xbda827bd	-0.082107045
225	0x3d8c08c5	0.0683761
226	0x3c478571	0.012177811
227	0xbdc4436d	-0.09583173
228	0x3c8b1748	0.016978875
229	0xbca5b7d4	-0.020229258
230	0xbd059bca	-0.032619275
231	0x3d877739	0.06614537
232	0xbd2b43bb	-0.04181264
233	0xbc427107	-0.011867768
234	0x3d5dfbd8	0.054195255
235	0x3d918f09	0.0710736
236	0xbd3ab2dd	-0.045580734
237	0xba6f33ec	-0.00091248634
238	0xbd22cbb0	-0.039745033
239	0xbc8dbf69	-0.017303186
240	0x3d859083	0.06521704
241	0xbd9901a2	-0.074710146
242	0x3cbeef4a	0.023307461
243	0x3d868322	0.0656798
244	0xbdc7c4d5	-0.097543396
245	0xbd616e8f	-0.055037078
246	0xbc4a2dc9	-0.012340018
247	0xbda735ef	-0.08164584
248	0xbd346027	-0.04403701
249	0xbd819ab4	-0.063283354
250	0xbd915170	-0.07095611
251	0xbd282221	-0.041048173
252	0xbd18b912	-0.03728587
253	0x3d56f453	0.0524791
254	0x3cdc824c	0.0269176
255	0x3d7f2cfd	0.062298764

net.2.bias f4 [128]
0	0x3c3eded0	0.011649802
1	0xbdae6867	-0.08516007
2	0x3d9ac30c	0.075567335
3	0xbcf90f58	-0.030402824
4	0x3dd8674e	0.10566579
5	0x3b181235	0.0023204212
6	0xbd0b3f49	-0.0339959
7	0xbd0fac40	-0.03507638
8	0x3cb20917	0.02173285
9	0xbd6fde14	-0.0585614
10	0xbcf5f9d1	-0.030026348
11	0x3d801a6e	0.06255041
12	0xbd1d5aad	-0.038416553
13	0xbd2285b6	-0.039678298
14	0xbc4c0c9c	-0.012454178
15	0x3d6d8000	0.0579834
16	0xbd704dfe	-0.05866813
17	0x3ddcb143	0.107759975
18	0xbdab61a4	-0.08368233
19	0xbce97905	-0.02850009
20	0x3d9a891d	0.075456835
21	0xb99b3657	-0.0002960439
22	0xbd03aad4	-0.032145336
23	0x3d933e5f	0.07189631
24	0x3ddb9879	0.10722441
25	0xbd631b7e	-0.05544614
26	0xbcb14e29	-0.021643715
27	0xbd8c77c9	-0.06858785
28	0x3d132c16	0.035930716
29	0xbd460b79	-0.048350785
30	0xbce595a3	-0.028025454
31	0xbd8ee07e	-0.06976412
32	0x3d865150	0.06558478
33	0xbd299c9f	-0.04140913
34	0x3d14eab7	0.036356654
35	0x3d70041c	0.05859767
36	0xbaa93a60	-0.0012911074
37	0xbdc9c3e1	-0.09851814
38	0x3d6d0f28	0.057875782
39	0x3dcdcc9e	0.10048793
40	0x3c9cfd82	0.01916385
41	0x3cc8b564	0.024500556
42	0xbd81b341	-0.06333018
43	0xbda766d0	-0.08173907
44	0xbcad255f	-0.021135984
45	0x3dd37b72	0.1032628
46	0xbba7e492	-0.0051236833
47	0xbb8716ca	-0.0041225897
48	0x3dba5f7a	0.09100242
49	0x3d6821f5	0.05667301
50	0x3d82ea12	0.063923016
51	0xbd29fbdb	-0.041499954
52	0xbdaacfb8	-0.083404005
53	0x3dbb756c	0.09153256
54	0x3d7dc9ad	0.06195991
55	0xbc208ce2	-0.009799214
56	0x3ce03962	0.027371112
57	0xbd82de0e	-0.0639001
58	0xbd507d69	-0.05090085
59	0xbcd5bd10	-0.026091129
60	0x3cb45124	0.022011347
61	0x3d4cf505	0.050038356
62	0x3dd20d02	0.10256387
63	0xbd2f86b2	-0.042853065
64	0x3dfffc31	0.124992736
65	0xbd99c37d	-0.075079896
66	0x3c1221de	0.008919207
67	0xbc0d5300	-0.008625746
68	0x3db96753	0.09052911
69	0xbd95034d	-0.0727602
70	0x3dbb6b9d	0.09151385
71	0xbcb2feb1	-0.021849962
72	0x3d5251a2	0.051347382
73	0xbd553d62	-0.052060492
74	0x3d53d9fc	0.051721558
75	0xbceffbaf	-0.029294817
76	0xbd887079	-0.066620775
77	0x3cbf13f9	0.023324953
78	0xbab95566	-0.0014139831
79	0xbc631137	-0.013859085
80	0x3c8ced09	0.01720287
81	0xbd85014a	-0.064943865
82	0x3d309ea9	0.04312006
83	0x3a90450e	0.0011006908
84	0x3da7902b	0.08181795
85	0xbd5b1497	-0.053486433
86	0xbd080228	-0.03320518
87	0x3dd6700e	0.104705915
88	0xbb3399ac	-0.0027404828
89	0x3da4c8d2	0.08046116
90	0x3d9cea28	0.07661849
91	0xbdb34488	-0.08753306
92	0xbd4fa10e	-0.050690703
93	0xbd806c03	-0.062706016
94	0xbd1b14e4	-0.03786172
95	0xbad1d8c6	-0.0016010038
96	0x3d4f7f58	0.050658554
97	0xbda297fe	-0.079391465
98	0x3d84ec82	0.06490423
99	0x3b98ddb9	0.0046651033
100	0xbd9be75f	-0.0761249
101	0x3d12f794	0.03588064
102	0x3d98b36d	0.07456098
103	0x3da9a847	0.082840495
104	0x3db32185	0.08746628
105	0x3bf9fad6	0.007628779
106	0x3da52ad9	0.08064813
107	0x3d8d032d	0.06885371
108	0x3c579d55	0.0131600695
109	0xbdc1ba34	-0.094593436
110	0xbd7b065f	-0.061285373
111	0x3c26ce74	0.010181058
112	0xbd46073e	-0.04834675
113	0x3dbc2c61	0.09188152
114	0x3c284189	0.010269531
115	0x3d131391	0.03590733
116	0x3db83681	0.08994771
117	0xbd068e27	-0.03285041
118	0xbd98da52	-0.07463516
119	0xbc6a5dc4	-0.014304582
120	0x3c5731c3	0.013134423
121	0x3d88c7b6	0.06678717
122	0xbd83e1be	-0.06439541
123	0xbdb3e584	-0.08784011
124	0xbdb7dcb5	-0.089776434
125	0x3de7c822	0.11317469
126	0xbd163cec	-0.036679193
127	0xbd0d77da	-0.034538127

net.4.weight f4 [64, 128]
0	0xbd24d19e	-0.04023897
1	0x3d98df68	0.07464486
2	0x3c551b04	0.013006929
3	0xbacc31ac	-0.0015578768
4	0x3c91395d	0.017727548
5	0x3c422a22	0.011850866
6	0xbd644712	-0.05573184
7	0xbc641885	-0.013921862
8	0x3bf8e287	0.0075953635
9	0xbd4a0419	-0.049320314
10	0x3d935633	0.071941756
11	0xbd1a2586	-0.03763344
12	0xbd1693c4	-0.036762014
13	0xbca6adef	-0.02034661
14	0xbd7b76f3	-0.061392736
15	0xbca59975	-0.020214776
16	0xbc0e09a6	-0.008669293
17	0xbd023348	-0.031787187
18	0xbcaac2a7	-0.02084477
19	0x3bac4df4	0.005258316
20	0xbd4044d8	-0.046940655
21	0xbcc9c547	-0.024630202
22	0xbd962b9f	-0.07332539
23	0xbdae3268	-0.08505708
24	0xbd4a81d2	-0.049440213
25	0x3dbb2739	0.091383405
26	0xbacce33a	-0.0015631684
27	0xbd86a29f	-0.06573986
28	0xbdd2ad3c	-0.10286948
29	0xbd916fef	-0.07101428
30	0xbca8469f	-0.020541487
31	0x3d4cb6a3	0.049978863
32	0xbd71cb1f	-0.059031602
33	0xbd09c303	-0.033633243
34	0xbdc3d1c8	-0.09561497
35	0xbcd35629	-0.02579792
36	0x3c8d7505	0.017267713
37	0xbd4e9eef	-0.05044454
38	0xbdae7c20	-0.08519769
39	0xbc99d4e6	-0.018778276
40	0xbd3b8339	-0.04577944
41	0xbcf8ffe7	-0.030395461
42	0xbd891846	-0.06694083
43	0xbd4e7ce9	-0.050412092
44	0xbd3f260d	-0.046667147
45	0xbc100601	-0.008790494
46	0xbd684a39	-0.05671141
47	0x3d820430	0.06348455
48	0xbd82399a	-0.06358643
49	0xbda5d284	-0.08096793
50	0xbc496b68	-0.012293674
51	0x3abe768e	0.0014531182
52	0x3d8fb24e	0.07016431
53	0xbc01c266	-0.007919883
54	0x3d1f4637	0.03888532
55	0xbd373165	-0.04472484
56	0xbcba3dbc	-0.022734515
57	0x3d07174d	0.032981206
58	0x3d29abff	0.041423794
59	0x3c514a10	0.0127740055
60	0xbdb06b4b	-0.086142145
61	0xbd99ebf0	-0.07515705
62	0xbc88465e	-0.016635116
63	0x3d4a24f3	0.049351644
64	0x3c18829a	0.009308482
65	0x3d649c7a	0.05581329
66	0xbb8098ba	-0.0039244564
67	0xbdc04963	-0.093889974
68	0x3d5043b1	0.050845806
69	0x3d9271a9	0.07150585
70	0x3cd1c806	0.025608074
71	0xbcfae7ba	-0.030628074
72	0xbc9a1814	-0.01881031
73	0xbd31a0ef	-0.04336637
74	0xbc3efe6d	-0.0116573395
75	0x3d5700c3	0.05249096
76	0xbb2a5a11	-0.0025993625
77	0x3d86a94b	0.06575259
78	0x3d32b30a	0.043627776
79	0xbdc84f8a	-0.09780796
80	0xbcda326f	-0.026635377
81	0xbd18c432	-0.03729648
82	0xbdc41532	-0.09574355
83	0x3c3f4075	0.011673083
84	0x3c8781a1	0.016541304
85	0xbdd2097d	-0.10255716
86	0xbd110598	-0.035405725
87	0x3d65c3e1	0.056095008
88	0x3c0e10ef	0.0086710295
89	0x3d3d9ee2	0.0462941
90	0x3bcaa9ba	0.0061847838
91	0x3d0cfb27	0.034419205
92	0x3d214446	0.03937175
93	0x3d22ed05	0.03977682
94	0xbdb254d9	-0.0870759
95	0x3d20d030	0.039261043
96	0x3c0776cd	0.00826807
97	0x3d1f5ff2	0.03890986
98	0xbd9c2452	-0.07624115
99	0xbc5238a9	-0.012830892
100	0x3d997c44	0.07494405
101	0xbd8c03d0	-0.06836665
102	0xbdaec832	-0.08534278
103	0xbdadeb56	-0.084921524
104	0xbd066ce6	-0.032818697
105	0x3c259d19	0.010108256
106	0xbd924be8	-0.07143384
107	0xbcdf299d	-0.027241522
108	0xbd9c6bb4	-0.0763773
109	0xbdae26dc	-0.085035056
110	0xbd44409a	-0.04791317
111	0x3cc4ce18	0.024024054
112	0xbc844d92	-0.01615027
113	0xbda44da3	-0.080226205
114	0xbd9ad6b4	-0.075604826
115	0xbd84b5c7	-0.06479984
116	0xbd4f1494	-0.050556734
117	0xbcb71f17	-0.022353692
118	0xbd75f503	-0.060048115
119	0xbc294fa1	-0.010333926
120	0xbd9938a6	-0.07481508
121	0xbd1f4869	-0.038887415
122	0xbcb85b00	-0.02250433
123	0x3d77d1a8	0.06050268
124	0xbd81ee95	-0.06344334
125	0xbde3b236	-0.111179754
126	0xbd990e34	-0.07473412
127	0x3d655e3c	0.055998072
128	0x3ce29a45	0.027661452
129	0x3d34f9fe	0.044183724
130	0x3d810f6c	0.063017696
131	0x3dc09b7b	0.094046555
132	0x3dc7863e	0.097424015
133	0x3da62690	0.08112824
134	0x3dae1cd8	0.08501595
135	0xbd88292c	-0.06648478
136	0xbd797d16	-0.060910307
137	0xbd7b1c2f	-0.061306175
138	0x3bf21fab	0.007389029
139	0x3d64760d	0.055776644
140	0xbd1d682a	-0.038429417
141	0xbd82d382	-0.06387998
142	0xbd830a2d	-0.06398425
143	0x3d02a3c4	0.03189446
144	0x3dba846e	0.0910729
145	0xbd440978	-0.047860593
146	0x3c3ea2a9	0.011635461
147	0x3d101504	0.035176292
148	0xbd89e874	-0.0673379
149	0x3d0cb1de	0.034349315
150	0xbd894827	-0.06703215
151	0xbc0aacaa	-0.008464018
152	0x3cd6def9	0.026229369
153	0x3bed59e2	0.007243381
154	0xbd83228e	-0.06403075
155	0x3ccdf013	0.02513889
156	0x3d252297	0.04031619
157	0x3c9c2258	0.019059345
158	0x3dca6709	0.09882934
159	0x3d6b4760	0.057441115
160	0x3db3a31a	0.087713435
161	0x3cd893c7	0.026437653
162	0xbcb238b1	-0.021755548
163	0x3d285ecf	0.04110604
164	0x3cc5ab85	0.024129638
165	0xbcff7ddc	-0.031187944
166	0xbd7a776c	-0.061149046
167	0x3da0357d	0.07822702
168	0x3d426cc8	0.047467023
169	0x3c074b7e	0.008257745
170	0x3ce8ca86	0.028416883
171	0x3ced7b08	0.02898933
172	0x3dbdab10	0.09261143
173	0x3d0608ea	0.032723345
174	0x3d75f845	0.06005122
175	0x3d21295f	0.039346095
176	0xbd3915d0	-0.045186818
177	0xbd216ec0	-0.03941226
178	0xbd22f31f	-0.03978264
179	0xbd744287	-0.059633758
180	0xbd61a12a	-0.05508534
181	0xbb9b8b3d	-0.004746823
182	0xbb81fe29	-0.003967066
183	0x3d0376ac	0.032095596
184	0x3cd4fd7b	0.025999775
185	0x3db0c7f6	0.086318895
186	0xbcefbd05	-0.029264936
187	0x3d6be04b	0.05758695
188	0xbc2249eb	-0.009905319
189	0xbd4795fc	-0.04872702
190	0x3ce58fb4	0.028022625
191	0x3d59df56	0.053191505
192	0x3d04dd96	0.032437883
193	0xbcbac5fd	-0.022799486
194	0xbd3c97dc	-0.046043262
195	0x3d1d2ecf	0.03837472
196	0xbc3ab664	-0.011396024
197	0x3d35d8b0	0.044396102
198	0x3da05308	0.07828337
199	0x3cb950bc	0.022621505
200	0xbd309e8c	-0.043119952
201	0x3d387413	0.045032572
202	0x3dad33ee	0.084571704
203	0xbda39185	-0.0798674
204	0xbd37bf77	-0.04486033
205	0xbd35f526	-0.044423245
206	0xbd18ef32	-0.03733749
207	0xbd554527	-0.052067902
208	0x3cfc4169	0.030792909
209	0xbd89fe8d	-0.06738005
210	0x3c1c9778	0.009557597
211	0x3d98e0f6	0.07464783
212	0x3dbccbe4	0.092185766
213	0x3d966978	0.07344335
214	0x3d5add28	0.053433567
215	0x3cec37d7	0.02883522
216	0xbd5a0e07	-0.053236034
217	0xbd5ac301	-0.053408626
218	0x3db8cb23	0.0902312
219	0x3c8235bc	0.015894763
220	0xbc013580	-0.007886291
221	0x3dab5923	0.08366611
222	0x3c7d9946	0.015478438
223	0x3d41dc4b	0.04732923
224	0x3c503ece	0.012710286
225	0xbdb95cef	-0.09050929
226	0x3da9dcba	0.082940534
227	0x3b6265e4	0.0034545595
228	0xbdb938b7	-0.090440206
229	0x3db99e8c	0.090634435
230	0x3d57af80	0.052657604
231	0x3d39066f	0.04517215
232	0x3dce1b77	0.10063832
233	0x3dc4de85	0.09612755
234	0xbd852fab	-0.065032326
235	0x3c2f9a4e	0.010717941
236	0xbd7a5cd8	-0.0611237
237	0xbd57b828	-0.05266586
238	0x3c9ab8de	0.01888698
239	0x3a826aec	0.0009950078
240	0xbb463e34	-0.0030249478
241	0xbc51e358	-0.012810551
242	0xbc313bb1	-0.010817454
243	0x3dc7f341	0.09763194
244	0xbcd7f66f	-0.026362626
245	0xbc288abe	-0.010286985
246	0x3d17f287	0.037096526
247	0xbd5f85da	-0.05457101
248	0xbd389873	-0.045067262
249	0xbbc3d51f	-0.0059763337
250	0xb9a56f8e	-0.00031554367
251	0xbcb3b039	-0.021934615
252	0xbca6376e	-0.020290103
253	0xbd740dda	-0.059583522
254	0xbd65729a	-0.056017496
255	0xbd75d627	-0.060018685

net.4.bias f4 [64]
0	0xbd83ef69	-0.06442148
1	0xbd0881e0	-0.033326983
2	0xbde256d2	-0.11051716
3	0x3d65125f	0.055925723
4	0x3db979d7	0.09056442
5	0x3dab9ce3	0.08379533
6	0x3d950c2e	0.07277714
7	0xbc9b6bae	-0.018972244
8	0x3d9ce331	0.07660521
9	0x3dbc4693	0.091931485
10	0x3d61b784	0.055106655
11	0x3cb6ba67	0.02230568
12	0x3c11dcfb	0.0089027835
13	0x3b1d33d5	0.0023987193
14	0x3dade2e2	0.0849054
15	0xbdba07d4	-0.09083524
16	0xbc851115	-0.016243497
17	0x3d4a0db6	0.049329482
18	0xbd1c8b19	-0.03821859
19	0xbd9c85f2	-0.076427355
20	0xbd06056f	-0.032720026
21	0xbd0fa46d	-0.035068918
22	0xbd9bef60	-0.076140165
23	0xbdeaade4	-0.11458948
24	0xbd1d269b	-0.038366895
25	0xbce57e12	-0.028014217
26	0xbb889774	-0.0041684452
27	0x3de81929	0.11332924
28	0xbdc6f80c	-0.0971528
29	0x3da820b9	0.08209366
30	0x3d584fa0	0.05281031
31	0x3ddd9fe1	0.1082151
32	0x3d6bdc3b	0.057583075
33	0xbd44fd51	-0.048093144
34	0x3d8fe8d5	0.07026831
35	0xbd1f846d	-0.03894465
36	0xbd94675a	-0.07246275
37	0xbd9e9b4d	-0.07744465
38	0x3d8357c7	0.064132266
39	0xbdb043e8	-0.08606702
40	0x3d424e25	0.047437806
41	0x3d4f75e0	0.050649524
42	0x3d230bba	0.039806105
43	0xbdbe426f	-0.09290015
44	0xbac48160	-0.001499217
45	0xbd86e56a	-0.06586726
46	0x3c0d1776	0.008611551
47	0x3ca7e897	0.02049665
48	0x3d05d5b2	0.0326745
49	0xbd1dfb2c	-0.038569614
50	0xbd55e29d	-0.05221807
51	0xbda3264e	-0.079662904
52	0xbd2ce3b4	-0.042209342
53	0xbd54f511	-0.051991526
54	0x3cdde445	0.027086386
55	0x3d24be71	0.04022068
56	0xbd01ed15	-0.03172024
57	0x3b848e6f	0.0040452997
58	0xbdab4e76	-0.083645746
59	0x3d9d4189	0.076785155
60	0x3d0ddad8	0.034632534
61	0xbdceb948	-0.10093933
62	0xbd69dca0	-0.05709517
63	0xbca9da0f	-0.020733861

input_layer.weight f4 [128, 34]
0	0xbe05f08b	-0.13080041
1	0x3e26b680	0.16280556
2	0xbc1fcb4c	-0.00975306
3	0x3d3833fe	0.04497146
4	0xbc2e0a56	-0.0106225815
5	0x3ae88c4c	0.0017742007
6	0xbd9947af	-0.07484376
7	0x3defbfd7	0.117065124
8	0x3d499476	0.04921385
9	0x3d3f77fa	0.046745278
10	0xbd62d4d3	-0.055378746
11	0x3e010919	0.12601127
12	0xbe1e2ee4	-0.15447575
13	0xbd64a4ab	-0.055821102
14	0xbdfd264b	-0.123608194
15	0xbde3f550	-0.11130774
16	0x3e1ac835	0.15115435
17	0xbde756a3	-0.112958215
18	0x3ddba5f2	0.10725011
19	0x3d05d7b5	0.032676417
20	0x3bc99bda	0.006152612
21	0xbd8eecfa	-0.069787934
22	0xbd53d823	-0.051719796
23	0x3d936081	0.07196141
24	0xbe0b8608	-0.13625348
25	0x3e148860	0.14505148
26	0x3db02ab3	0.08601894
27	0x3c2d7779	0.0105875665
28	0x3d231499	0.039814565
29	0x3e30df1b	0.17272608
30	0x3e1c12b7	0.15241514
31	0xbe15b25f	-0.14618824
32	0xbe0fdd22	-0.14049199
33	0x3df82788	0.12116915
34	0xbc0c34b5	-0.008557488
35	0xbdf32d7e	-0.11873911
36	0xbddf3f72	-0.10900773
37	0xbe100083	-0.14062695
38	0x3df07afe	0.11742209
39	0x3c43383e	0.011915265
40	0x3dad7d67	0.08471184
41	0xbe1e9808	-0.15487683
42	0xbcce9390	-0.025216848
43	0x3d741f63	0.059600245
44	0x3d4ccf36	0.0500023
45	0xbdb14c91	-0.08657182
46	0x3d72ff83	0.059325706
47	0xbbed3114	-0.0072385166
48	0x3df90a60	0.12160182
49	0x3c2fcd50	0.010730103
50	0xbe25710b	-0.16156404
51	0xbe015c2e	-0.1263282
52	0xbe2083a0	-0.15675211
53	0xbe0accf0	-0.1355474
54	0x3dd06bef	0.10176837
55	0x3e24a5e0	0.16078901
56	0xbcfd34d5	-0.030908981
57	0xbd3b3354	-0.045703247
58	0xbd171ee8	-0.03689471
59	0x3d6492e1	0.055804137
60	0xbddeece7	-0.10885029
61	0xbdb14d2c	-0.086572975
62	0xbdb16cb5	-0.08663312
63	0x3e1837bb	0.1486501
64	0x3d42935b	0.04750381
65	0xbe276247	-0.16346084
66	0x3e1bc067	0.15210114
67	0x3db62ad7	0.0889489
68	0x3d64f9c6	0.055902265
69	0x3ddea4a8	0.108712494
70	0xbd8e1879	-0.069382615
71	0xbe29fd68	-0.16600573
72	0xbc81c012	-0.015838657
73	0x3e27e4c7	0.16395865
74	0x3c23574e	0.0099695455
75	0xbd839863	-0.0642555
76	0xbd84e072	-0.06488122
77	0x3e04d82d	0.1297309
78	0x3df145f2	0.11780919
79	0x3df6279d	0.120192744
80	0x3d8b1bb9	0.06792397
81	0x3d01a2d2	0.03164942
82	0xbdefe276	-0.11713116
83	0x3d2148b6	0.039375983
84	0xbd101a13	-0.035181116
85	0x3df67d7f	0.12035655
86	0x3dd51b8e	0.10405646
87	0xbd82aef5	-0.06381027
88	0xbbd73562	-0.006567643
89	0x3e1a46f6	0.15066132
90	0x3d025288	0.03181699
91	0xbd830d5b	-0.06399032
92	0xbe1739cb	-0.1476814
93	0x3d1e085c	0.03858219
94	0xbdae403e	-0.08508347
95	0xbc9a7aad	-0.018857324
96	0xbdcdd255	-0.10049883
97	0xbc81a47d	-0.015825504
98	0xbd83ec47	-0.06441551
99	0xbc406979	-0.011743897
100	0x3e2c6ce3	0.16838412
101	0xbc071a68	-0.008246042
102	0xbe03339f	-0.1281266
103	0x3e071b73	0.13194065
104	0x3e0b491c	0.13602108
105	0x3dc3d890	0.095627904
106	0x3db901a8	0.09033519
107	0x3de97b83	0.11400511
108	0xbcac8c8f	-0.021063117
109	0xbd9b3dca	-0.07580145
110	0x3e2bc53b	0.16774456
111	0x3d9e6c81	0.07735539
112	0xbe0033d0	-0.12519765
113	0xbe1bff2b	-0.15234058
114	0x3dd07ed6	0.10180442
115	0x3e2781e8	0.16358149
116	0xbd5e3aba	-0.054255225
117	0xbdc0705d	-0.093964316
118	0xbcdd0e3e	-0.02698433
119	0xbd3d45db	-0.046209197
120	0xbdef9c2e	-0.11699711
121	0x3dc211aa	0.094760254
122	0x3dbac23d	0.09119079
123	0x3e22c6e7	0.15896188
124	0xbdbe8b9d	-0.09303973
125	0xbc9d23c7	-0.019182099
126	0xbce61762	-0.028087322
127	0xbc5b9b9c	-0.013403799
128	0x3d7335b0	0.059377372
129	0xbd1286b5	-0.035772998
130	0x3de0d6f3	0.10978498
131	0x3c1249a3	0.008928689
132	0xbbc746e9	-0.006081451
133	0xbdc40238	-0.09570736
134	0x3d706fc2	0.05870033
135	0xbc668f8c	-0.01407231
136	0xbddb275b	-0.10700866
137	0xbdde44cf	-0.10852968
138	0xbe1eadae	-0.15495941
139	0xbe2e4a95	-0.17020638
140	0x3db8f436	0.090309545
141	0x3d8ee919	0.069780536
142	0xbd999911	-0.07499898
143	0x3df53eca	0.11974867
144	0x3e28c0ea	0.16479841
145	0xbd0082c7	-0.03137472
146	0xbe207e1f	-0.15673111
147	0xbe0f127f	-0.139719
148	0xbdf270fa	-0.11837955
149	0xbdcb3f2b	-0.09924158
150	0x3e13338b	0.14375131
151	0x3dc564d2	0.096383706
152	0xbd660ad4	-0.05616267
153	0xbe11c960	-0.14236975
154	0x3dac6f38	0.08419651
155	0xbc2f2160	-0.01068911
156	0x3dae3d34	0.08507767
157	0xbe119707	-0.14217769
158	0x3c0fa5e1	0.008767576
159	0xbde7fc66	-0.11327438
160	0xbe086291	-0.1331885
161	0xbc03875a	-0.008027876
162	0x3d2914f9	0.041279767
163	0x3e166a9a	0.14689103
164	0xbcf3d77c	-0.029765837
165	0x3d435a10	0.047693312
166	0xbe2a9ff2	-0.16662577
167	0xbe0c71a4	-0.13715225
168	0xbd8c0897	-0.06837576
169	0xbdc6dc7c	-0.09710023
170	0xbdb49d11	-0.088190205
171	0x3db19e80	0.086728096
172	0xbe0a3eb2	-0.13500479
173	0x3ca66153	0.02031008
174	0xbce069aa	-0.027394135
175	0xbe0c800a	-0.13720718
176	0xbdefc23b	-0.117069684
177	0xbca0b5c6	-0.019617926
178	0x3d7bc48a	0.06146673
179	0x3df43a12	0.119251385
180	0xbd829b4d	-0.063772775
181	0x3d85def4	0.065366656
182	0xbdeda542	-0.11603786
183	0x3d6000ab	0.054688137
184	0xbc871dc2	-0.016493682
185	0xbd36bdd2	-0.04461462
186	0x3e0eb91e	0.13937804
187	0xbe17addd	-0.14812417
188	0xbd97f284	-0.07419303
189	0xbdcd6d54	-0.10030618
190	0x3e07517d	0.13214679
191	0xbe2b2dcd	-0.1671669
192	0xbd3fc7d6	-0.046821438
193	0xbdc4e0f0	-0.09613216
194	0x3dfa4ed6	0.12222068
195	0x3e06d77d	0.1316814
196	0x3dc70201	0.09717179
197	0x3dffa845	0.12483267
198	0x3d7cbdcb	0.06170444
199	0xbe360f7a	-0.17779341
200	0xbdda49f2	-0.10658635
201	0xbb7f4933	-0.0038953542
202	0x3dd9b069	0.10629351
203	0x3b9b380e	0.004736907
204	0x3e153594	0.1457122
205	0xbdbbbb35	-0.09166566
206	0x3e13f7ce	0.14449999
207	0x3d10a0b8	0.035309523
208	0x3d7b457f	0.061345574
209	0xbd1d0624	-0.038335934
210	0xbd9f3cac	-0.07775244
211	0x3cefee52	0.029288445
212	0x3d6a233b	0.057162505
213	0xbdd1ec49	-0.10250146
214	0xbcddc4de	-0.027071413
215	0x3e20edcf	0.15715717
216	0x3dd27a80	0.10277271
217	0x3d7cfb6a	0.061763205
218	0x3d6d219f	0.05789339
219	0xbd09aa3b	-0.03360961
220	0x3c908239	0.01764022
221	0x3e0731b3	0.13202552
222	0xbd991538	-0.0747475
223	0xbdb33268	-0.087498486
224	0x3c09dbc4	0.008414213
225	0x3df19190	0.11795342
226	0xbde81bd4	-0.11333433
227	0xbd26ef22	-0.0407554
228	0x3d2bb492	0.041920252
229	0x3df48bc8	0.11940724
230	0x3d83f10c	0.064424604
231	0x3e143a4e	0.14475366
232	0x3dc3f0e3	0.0956743
233	0x3cee1a12	0.029065166
234	0x3d0d451e	0.034489743
235	0xbd199fcc	-0.03750591
236	0x3d81c131	0.063356765
237	0x3deac8b8	0.11464065
238	0xbd2cdaf3	-0.042200994
239	0x3d9f6405	0.07782749
240	0xbd2b8bcb	-0.041881364
241	0x3e22460d	0.15847035
242	0xbd18a2c8	-0.037264615
243	0xbd9c15d6	-0.076213524
244	0xbc01adbc	-0.007914957
245	0xbda982b7	-0.08276885
246	0xbd2327ad	-0.03983276
247	0x3d709eee	0.058745317
248	0x3bbebc21	0.0058207666
249	0x3bf39a6a	0.007434179
250	0x3d9ed68a	0.07755764
251	0x3dab3521	0.08359743
252	0x3e053f36	0.13012394
253	0x3e08431d	0.13306852
254	0x3e066048	0.13122666
255	0xbda3e736	-0.08003084

input_layer.bias f4 [128]
0	0x3dfbb5fd	0.12290571
1	0xbe381116	-0.17975268
2	0x3e28624f	0.16443752
3	0xba1b00e4	-0.00059129135
4	0xbe2c8147	-0.1684619
5	0xbc84e55d	-0.01622265
6	0xbd4a6ff1	-0.049423162
7	0xbdc39c46	-0.09551291
8	0x3dceb8ba	0.100938275
9	0x3d8fb04f	0.0701605
10	0x3d57b9aa	0.052667297
11	0x3e06035b	0.13087218
12	0x3cb8645a	0.022508789
13	0x3dbc0b5d	0.09181855
14	0x3dae38c8	0.08506924
15	0x3df2964e	0.118450746
16	0xbdf8a5b0	-0.121409774
17	0x3de51d71	0.11187256
18	0xbdf18e9b	-0.11794778
19	0xbe181871	-0.14853074
20	0xbdb47782	-0.08811857
21	0xbd018d19	-0.0316287
22	0x3e27a5a4	0.1637178
23	0x3dddc80a	0.1082917
24	0xbc8ec206	-0.017426502
25	0x3dde0af4	0.10841933
26	0xbd618631	-0.055059616
27	0xbe312fca	-0.17303386
28	0xbe0c09bd	-0.1367559
29	0xbe356d08	-0.17717373
30	0x3d992aa1	0.07478834
31	0xbccde17e	-0.025131937
32	0x3dab9254	0.08377519
33	0xbe279ebc	-0.16369146
34	0x3d8ded63	0.069300435
35	0x3b57170f	0.003282014
36	0xbd1ce729	-0.03830639
37	0x3cbc1ac6	0.022961985
38	0x3d4f13eb	0.050556105
39	0xbdbec3dc	-0.09314701
40	0x3ce0e666	0.027453613
41	0xbe2937d1	-0.16525199
42	0x3e10390f	0.14084266
43	0x3d966237	0.07342952
44	0x3d85c344	0.065313846
45	0xbdfd4369	-0.12366373
46	0x3c9e79d5	0.019345203
47	0x3e020852	0.12698486
48	0x3dcb0f4f	0.09915029
49	0xbe1a9993	-0.15097646
50	0xbdae1d0c	-0.08501634
51	0xbe325d0b	-0.17418306
52	0x3ab562e3	0.0013838675
53	0xbba049e1	-0.0048916196
54	0xbd83b1bc	-0.064303845
55	0xbdc6ed0d	-0.097131826
56	0x3da31bf1	0.07964314
57	0xbdd09b38	-0.101858556
58	0xbd45de0a	-0.048307456
59	0x3d57ee96	0.052717768
60	0x3d74f434	0.059803203
61	0x3dbb2c69	0.0913933
62	0xbd2ca997	-0.04215392
63	0xbde7c8f0	-0.11317623
64	0x3e2e474b	0.17019384
65	0xbd856148	-0.065126956
66	0xbd0c1f73	-0.03420968
67	0xbdb1cc6e	-0.0868157
68	0xbe035b28	-0.12827742
69	0xbdb60ac2	-0.08888771
70	0xbe059479	-0.13044919
71	0xbd9a25c2	-0.07526733
72	0xbdbdb7a3	-0.092635415
73	0xbe20ddd2	-0.15709618
74	0xbb12a15c	-0.002237401
75	0xbe3623cd	-0.17787094
76	0xbdf4f7f2	-0.11961354
77	0xbdc3b931	-0.09556807
78	0xbda26e0f	-0.07931148
79	0x3e04c85e	0.12967059
80	0x3d747d75	0.059689958
81	0x3d9fdaf6	0.07805435
82	0x3ccb0ea8	0.024787262
83	0x3e315264	0.17316586
84	0x3e2ab214	0.16669494
85	0xbe0b51fd	-0.13605495
86	0x3d2c6874	0.0420918
87	0x3e242e57	0.16033302
88	0x3ddf4097	0.109009914
89	0xbdb91683	-0.09037497
90	0x3da8da05	0.08244709
91	0xbdccd07c	-0.10000703
92	0x3e23ab89	0.15983404
93	0xbd45d32b	-0.04829709
94	0xbd475415	-0.04866417
95	0xbc982430	-0.018571943
96	0x3c80e3c0	0.0157336
97	0x3dc67253	0.09689774
98	0xbe1277b5	-0.14303477
99	0x3e18bf0c	0.14916629
100	0x3d5cdd8d	0.053922225
101	0xbd4a8a27	-0.04944816
102	0xbad568ff	-0.0016281902
103	0x3d99d838	0.075119436
104	0xbd87fb9d	-0.06639788
105	0x3bb73652	0.0055911923
106	0x3dd402c4	0.1035209
107	0x3d3791da	0.04481683
108	0x3e32b397	0.1745132
109	0xbb33f216	-0.0027457527
110	0xbe2ebb7c	-0.17063707
111	0x3ce6e5a4	0.028185673
112	0xbd921e63	-0.07134702
113	0x3ddea0b7	0.10870498
114	0x3d3e76ee	0.04650014
115	0x3d7f5291	0.0623346
116	0xbd9f5c1b	-0.077812396
117	0xbdcb19f3	-0.09917059
118	0x3d52deaf	0.0514819
119	0xbd8b088c	-0.067887396
120	0x3df12be2	0.11775948
121	0x3d2e8b0f	0.042613085
122	0xbdc9d7eb	-0.09855636
123	0x3e24386b	0.16037147
124	0x3df261e8	0.118350804
125	0xbda06e34	-0.078335196
126	0xbe309d8f	-0.17247604
127	0x3decd439	0.11563916

hidden_layers.0.weight f4 [128, 128]
0	0xbd78af63	-0.060714137
1	0x3d28e160	0.04123056
2	0xbd87cffe	-0.06631468
3	0x3d1971fe	0.037462227
4	0x3cd717e8	0.026256517
5	0xbce4473d	-0.027866
6	0x3d14e503	0.036351215
7	0xbd95085d	-0.07276986
8	0xbd81b516	-0.063333675
9	0xbd4d93ce	-0.050189786
10	0xbd9e3907	-0.07725721
11	0xbc160984	-0.009157542
12	0xbdab6c71	-0.08370293
13	0xbd592362	-0.05301226
14	0x3b36cda8	0.0027893577
15	0xbd200349	-0.039065633
16	0xbd5ea447	-0.054355886
17	0xbd4767f4	-0.04868312
18	0x3d8ab9c7	0.067737155
19	0x3cf2f565	0.029658029
20	0xbd13d381	-0.036090378
21	0xbb068168	-0.002052391
22	0xbbfce561	-0.007717774
23	0x3c9849eb	0.018589934
24	0xbccb9907	-0.024853243
25	0x3d64cb80	0.055858135
26	0x3ce1c547	0.02755989
27	0x3cf48b2d	0.02985152
28	0x3d3efbbc	0.04662679
29	0x3ad62d36	0.0016340378
30	0xbafad46c	-0.0019136793
31	0xbd062843	-0.03275324
32	0x3d37f48c	0.044910952
33	0xbc7a1f1d	-0.015266207
34	0xbd0b59e7	-0.034021284
35	0xbd6b235e	-0.057406776
36	0x3d15c88c	0.03656821
37	0xbd041aee	-0.032252245
38	0x3d4facb7	0.050701823
39	0x3d6106e6	0.05493822
40	0xbd65bf43	-0.056090605
41	0xbd236d41	-0.039899115
42	0xbd0c9727	-0.034323838
43	0x3c35e37a	0.011101598
44	0xbdb7475c	-0.089491576
45	0xbc40c913	-0.01176669
46	0x3d006ec2	0.031355627
47	0x3d8f44ee	0.06995569
48	0x3d314e0d	0.043287326
49	0xbc813109	-0.015770452
50	0xbd6924c2	-0.05691982
51	0x3bb9e2b8	0.005672779
52	0x3cb665da	0.022265363
53	0x3d457845	0.0482104
54	0xbd95c511	-0.07312978
55	0xbdb7e73b	-0.089796506
56	0xbdae18fa	-0.08500858
57	0x3cac2b27	0.02101667
58	0x3b148adc	0.0022665774
59	0x3d454960	0.04816568
60	0x3d4cfe41	0.050047163
61	0x3d8b627f	0.06805896
62	0xbd87ad6c	-0.066248745
63	0x3db45b47	0.08806472
64	0xbc5d6840	-0.013513625
65	0x3d617756	0.05504545
66	0x3d1b8dfb	0.0379772
67	0xbd1fe3ac	-0.039035484
68	0x3d8fb0f3	0.07016172
69	0xbdada129	-0.084780045
70	0xbdac9f4a	-0.084288195
71	0xbdb08c28	-0.08620483
72	0xbd1a42f0	-0.037661493
73	0x3ce6c1e8	0.028168634
74	0x3cc17ce5	0.023619125
75	0x3c9c9089	0.019111888
76	0xbdc02c13	-0.093834065
77	0xbdac80a3	-0.08422973
78	0x3d8330a2	0.0640576
79	0xbbd309a9	-0.0064403606
80	0xbcd5c092	-0.026092801
81	0xbd27e400	-0.040988922
82	0x3d85f141	0.06540156
83	0xbdc17fa9	-0.09448177
84	0xbd30cf82	-0.043166645
85	0x3d294a9b	0.041330915
86	0x3d7f3575	0.06230684
87	0x3bea9b85	0.0071596527
88	0x3d667888	0.05626729
89	0x3cd421fb	0.02589511
90	0x3d123278	0.035692662
91	0x3d282ddb	0.041059356
92	0xbc1ac6a9	-0.009446778
93	0x3c7babdb	0.015360798
94	0x3d9b21ce	0.07574807
95	0xbbcf8652	-0.006333151
96	0xbdc56b2e	-0.096395835
97	0xbd44ab39	-0.048014853
98	0xbca6c46c	-0.020357333
99	0x3d4e8985	0.050424118
100	0xbd06a555	-0.032872517
101	0xbda2e97f	-0.07954692
102	0xbd960825	-0.07325772
103	0xbbb14edd	-0.0054110126
104	0xbda3c93d	-0.079973675
105	0x3d3483c9	0.044070993
106	0xbd56d062	-0.052444823
107	0x3d8b67f7	0.06806939
108	0x3d118384	0.035525814
109	0xbda7ef10	-0.081998944
110	0x3c19f8e7	0.009397722
111	0x3d30f151	0.043198887
112	0x3d608ecb	0.054823678
113	0xbd1b2645	-0.037878294
114	0xbd6c5775	-0.057700593
115	0xbc310c00	-0.010806084
116	0xbd98b6d4	-0.07456747
117	0x3d94725d	0.072483756
118	0x3b220b29	0.002472589
119	0x3d75a34f	0.059970196
120	0x3d0f3f5a	0.034972526
121	0x3d03023e	0.03198456
122	0xbdba3999	-0.09093017
123	0x3c166e1d	0.0091815265
124	0x3d4bceb6	0.04975768
125	0xbcdd8b64	-0.027044006
126	0xbdadf147	-0.084932856
127	0x3d92c526	0.07166509
128	0xbc27de71	-0.010245905
129	0xbccb51c9	-0.024819272
130	0x3ce32203	0.027726179
131	0xbd8ea3cf	-0.06964838
132	0x3c172f68	0.009227611
133	0x3bb5c1d1	0.0055467864
134	0x3d0a9677	0.0338349
135	0x3d84278f	0.06452858
136	0x3c8e3ae0	0.017362058
137	0xbb2cd386	-0.0026371195
138	0x3ca735d3	0.020411408
139	0x3d5c27ae	0.05374878
140	0xbda64ae3	-0.08119752
141	0x3d9afc69	0.07567675
142	0xbd6e5d2b	-0.05819432
143	0xbc6735b2	-0.014111923
144	0x3da006b7	0.07813781
145	0xbda77ac6	-0.08177714
146	0xbd0d2ffe	-0.034469597
147	0xbd922e0e	-0.071376905
148	0x3d1d32f2	0.038378663
149	0xbd58671d	-0.05283271
150	0x3d38f79a	0.045158006
151	0x3d352a19	0.0442296
152	0x3d15d03a	0.036575533
153	0xbd586073	-0.052826356
154	0xbd0e46a6	-0.034735344
155	0xbc90ad00	-0.017660618
156	0xbd4215c0	-0.047384024
157	0x3bfaccc1	0.007653803
158	0xbd9ba1b3	-0.07599201
159	0xbd43f073	-0.047836732
160	0xbd4d4219	-0.050111864
161	0xbd99f7f5	-0.07517997
162	0xbd5bef46	-0.053694986
163	0x3d9b4e13	0.07583251
164	0x3d448ed5	0.047987778
165	0x3d9e2c61	0.07723308
166	0xbd39f8ed	-0.04540341
167	0x3da9e228	0.08295089
168	0xbc424cdf	-0.011859148
169	0x3c046c44	0.008082453
170	0x3d86d8ad	0.065842964
171	0x3d8e322a	0.06943162
172	0x3d80fb33	0.062979124
173	0x3d90960c	0.07059869
174	0xbd823a37	-0.0635876
175	0x3d49396e	0.049127035
176	0xbbdf9723	-0.006823437
177	0xbccea325	-0.025224278
178	0x3c893aae	0.016751613
179	0x3d094f03	0.033522617
180	0x3c2ed85b	0.0106717
181	0x3b951e4f	0.004550732
182	0xbc93a881	-0.018024685
183	0xbd56adb1	-0.05241174
184	0x3cbf2653	0.023333704
185	0x3d98e5d7	0.074657135
186	0x3d4d6b9f	0.050151464
187	0x3dac8c5b	0.08425208
188	0x3dbfe685	0.0937014
189	0x3d5a8834	0.05335255
190	0xbb74d5f3	-0.003735897
191	0xbd7612d0	-0.060076535
192	0x3d18bbb5	0.037288386
193	0x3c0135a8	0.007886328
194	0x3d8e1fd5	0.06939665
195	0x3d28e6f0	0.041235864
196	0x3d2d9cb8	0.042385787
197	0x3d97729b	0.07394906
198	0x3d845070	0.06460655
199	0x3d8c5f90	0.068541646
200	0xbcb95cfc	-0.022627346
201	0xbd87806d	-0.06616292
202	0xbd8eda3d	-0.069752194
203	0x3cfda2d1	0.030961426
204	0x3cd73839	0.026271926
205	0xbb6269a3	-0.0034547828
206	0x3d574d06	0.05256369
207	0x3d1ef38d	0.038806487
208	0x3d2ed664	0.042684928
209	0x3d04688d	0.03232627
210	0x3d251847	0.040306356
211	0x3d8595a0	0.06522679
212	0x3c99b84b	0.018764636
213	0x3da2f744	0.079573184
214	0xbd9a12f9	-0.0752315
215	0x3d7b90ea	0.061417498
216	0x3d924c83	0.071435
217	0x3d60454a	0.05475358
218	0xbab00f8f	-0.0013432371
219	0x3d693c28	0.056942135
220	0xbca91f1a	-0.020644713
221	0x3d24c9d4	0.04023154
222	0xbda12e22	-0.07870127
223	0xbdaa2f1e	-0.08309768
224	0x3da49a6f	0.08037268
225	0x3bf9ac09	0.007619385
226	0xbd107346	-0.035266183
227	0xbdafcc8a	-0.085839346
228	0x3d0b541b	0.034015756
229	0xbd020964	-0.031747237
230	0x3cdcb16b	0.026940068
231	0x3c43f373	0.011959898
232	0xbbd1da78	-0.0064042173
233	0x3cb0fa3e	0.0216037
234	0x3da20737	0.07911532
235	0x3d8bb96f	0.06822478
236	0xbd1f1281	-0.038836006
237	0xbcdb2c05	-0.026754389
238	0xbda397b8	-0.079879224
239	0x3d74b6ec	0.05974476
240	0xbd8a7731	-0.06761015
241	0x3c0f120d	0.008732331
242	0xbda6db0c	-0.081472486
243	0x3db76061	0.0895393
244	0x3d9a9872	0.07548608
245	0x3d72d64b	0.059286397
246	0xbcdc1629	-0.026866036
247	0x3d3d9690	0.046286166
248	0x3d518ae8	0.051157862
249	0xbcbf6107	-0.023361696
250	0x3da3c35c	0.07996246
251	0x3cc56247	0.024094714
252	0xbc827fb7	-0.01593004
253	0x3b78c301	0.0037958028
254	0x3d99e347	0.07514053
255	0xbd9c0e53	-0.0761992

hidden_layers.0.bias f4 [128]
0	0xbc86d3bf	-0.01645839
1	0xbd1911b4	-0.0373704
2	0xbda4544f	-0.08023893
3	0xbd3fd4c4	-0.04683377
4	0x3da19c7b	0.078911744
5	0xbc9ff61e	-0.019526538
6	0x3ceac581	0.02865863
7	0xbd332e3f	-0.043745276
8	0x3d314ceb	0.043286245
9	0x3d42a92d	0.04752462
10	0x3d7fb909	0.062432323
11	0x3d707922	0.05870927
12	0xba15e546	-0.00057180633
13	0xbda4fac3	-0.080556415
14	0xbcc13737	-0.023585899
15	0x3c6996ac	0.014257114
16	0xbd1dc991	-0.038522307
17	0xbd952cea	-0.07283957
18	0x3cb9d210	0.022683173
19	0xbd64f295	-0.055895407
20	0x3da532d7	0.080663376
21	0xbd9f7e8f	-0.07787811
22	0xbcf037a5	-0.029323408
23	0xbc063ef4	-0.00819372
24	0x3b4d2544	0.003130273
25	0xbcec89a9	-0.028874235
26	0x3d5c58ae	0.05379551
27	0x3cdc1391	0.026864799
28	0x3cee3e0b	0.029082319
29	0x3ccb548f	0.024820594
30	0xbda2994f	-0.079393975
31	0x3d7579a9	0.059930477
32	0x3d0e0fbd	0.034682978
33	0x3d26956c	0.040669844
34	0x3ba8231e	0.0051311394
35	0x3d62e80c	0.05539708
36	0x3cb3b1e7	0.021935416
37	0xbda8c62f	-0.082409255
38	0x3d480117	0.048829164
39	0xbc7b2f52	-0.015331106
40	0x3d6d9f9c	0.058013543
41	0xbd3775bb	-0.04479001
42	0x3d5c3b3f	0.05376744
43	0x3d80ab52	0.06282677
44	0x3d21dd48	0.03951767
45	0xbd5bad38	-0.05363199
46	0x3d161dd0	0.036649525
47	0x3d7651f6	0.060136758
48	0xbae9dda4	-0.0017842543
49	0x3daf6b7a	0.085654214
50	0x3c718380	0.014740825
51	0xbd196455	-0.0374492
52	0xbdca6c16	-0.09883897
53	0xbdb440ce	-0.08801423
54	0xbd8ca663	-0.06867673
55	0xbdaddfc0	-0.084899426
56	0x3d73f3c9	0.059558664
57	0xbd0e2c27	-0.034710076
58	0x3c378faf	0.01120369
59	0x3d36aece	0.0446003
60	0xbd6182cd	-0.055056382
61	0x3d4e5c04	0.05038072
62	0xbd3ce2c3	-0.046114694
63	0x3bc6beec	0.00606524
64	0x3c954d6c	0.018225394
65	0xbc5d6218	-0.013512157
66	0x3d4f05b5	0.050542552
67	0xbc619a8a	-0.013769755
68	0x3cfc3764	0.030788131
69	0x3d62317d	0.055222977
70	0x3c87efa8	0.01659377
71	0xbc056294	-0.008141179
72	0x3d89928c	0.06717405
73	0x3d2eef3c	0.04270862
74	0xbdbe4ee4	-0.09292391
75	0x3d0e8435	0.03479405
76	0xbcf1304f	-0.02944198
77	0x3d9a09da	0.0752141
78	0x3d3e0c47	0.046398427
79	0xbc40f934	-0.011778165
80	0xbc96fad3	-0.01843015
81	0xbc8eda34	-0.017438032
82	0xbd2cdef6	-0.04220482
83	0x3c69a4ee	0.014260514
84	0x3c3b5a6c	0.0114351325
85	0x3d80b419	0.06284351
86	0xbdbf3b31	-0.09337462
87	0x3cc4ffa3	0.024047678
88	0x3ba72b5a	0.0051016035
89	0x3d499755	0.049216587
90	0xbd115804	-0.03548433
91	0xbd2cffa9	-0.042236004
92	0x3ce387ad	0.027774656
93	0x3c899497	0.016794486
94	0x3c1eab2e	0.009684367
95	0x3d265500	0.040608406
96	0x3d187249	0.037218366
97	0xbd174610	-0.03693205
98	0xbd38d34b	-0.04512338
99	0x3d80a74f	0.062819116
100	0xbd55c3a3	-0.052188527
101	0xbd82bf95	-0.063841976
102	0xbcd2ac3f	-0.025716899
103	0xbd172340	-0.03689885
104	0x3ccf3acc	0.025296591
105	0xbbbe998d	-0.0058166445
106	0x3d89b2ff	0.06723594
107	0x3d077444	0.033069864
108	0xbcc11d74	-0.023573615
109	0x3c92a3c6	0.017900359
110	0x3d1d9774	0.038474515
111	0x3d32bd31	0.04363746
112	0xbd7c6cc1	-0.061627153
113	0x3d37bc3a	0.04485724
114	0x3a667841	0.0008791723
115	0x3cf89eb0	0.030349106
116	0x3ca1e07a	0.01976036
117	0xbda0e362	-0.0785587
118	0xbd2412ba	-0.04005692
119	0xbd97d7be	-0.074141964
120	0x3d4af161	0.049546603
121	0x3d966a79	0.07344527
122	0xbd5ef2e7	-0.05443087
123	0x3dc1ea49	0.094685145
124	0x3d944fb1	0.072417624
125	0x3c599815	0.013280888
126	0xbd17ff4f	-0.037108716
127	0x3d644d0e	0.055737548
